MLP(
  (embedding_user): Embedding(1, 32)
  (embedding_item): Embedding(1682, 32)
  (attention_layer): MultiHeadAttention(
    (q_proj): Linear(in_features=32, out_features=32, bias=True)
    (k_proj): Linear(in_features=32, out_features=32, bias=True)
    (v_proj): Linear(in_features=32, out_features=32, bias=True)
    (out_proj): Linear(in_features=32, out_features=32, bias=True)
  )
  (fc_layers): ModuleList(
    (0): Linear(in_features=96, out_features=32, bias=True)
    (1): Linear(in_features=32, out_features=16, bias=True)
    (2): Linear(in_features=16, out_features=8, bias=True)
  )
  (affine_output): Linear(in_features=8, out_features=1, bias=True)
  (logistic): Sigmoid()
)
2026-04-23 07:59:27,799-INFO-alias: V3_BEST_mha_both
2026-04-23 07:59:27,981-INFO-Range of userId is [0, 942]
2026-04-23 07:59:27,981-INFO-Range of itemId is [0, 1681]
2026-04-23 07:59:28,152-INFO---------------------------------------------------------------------------------
2026-04-23 07:59:28,152-INFO-Round 0 starts!
2026-04-23 07:59:29,175-INFO---------------------------------------------------------------------------------
…
